models/model.pth (torch, 11828 bytes, 6 tensors)

seq.0.weight f4 [8, 244]
000000 73 f1 c4 bf 32 b0 9d 3f aa 82 9d 3f d0 66 87 bf
       -1.5386184 1.2319396 1.23055 -1.0578251
000010 31 21 07 3e 7e a7 bb 3f cd e4 53 3f 06 0d bd bf
       0.13196255 1.466049 0.82771 -1.47696
000020 e7 68 bf 3f 22 7c de 3f b8 70 23 3d f8 43 c9 3f
       1.4953889 1.7381632 0.03990242 1.5723867
000030 87 47 8d 3f d5 5d 9e bf c7 78 9e bf 8a e8 de 3f
       1.1037453 -1.2372385 -1.2380608 1.7414715
000040 2b 2a 69 3f 87 55 61 3f e4 e9 b1 bf 16 72 18 3f
       0.9107997 0.8802113 -1.3899503 0.5954908
000050 48 0b ed 3c 4c 68 17 3f 2b 43 b1 3f 10 ee 77 bf
       0.028936043 0.5914352 1.3848623 -0.9684763
000060 46 ce 36 3d 60 52 a6 bf c2 1a db 3f 20 9b 9f bf
       0.04463031 -1.2993889 1.7117541 -1.2469215
000070 95 f0 b0 3f 5e 3a af 3f a0 7b a7 3e df 2e e4 bf
       1.382342 1.3689687 0.32711506 -1.7826804
000080 ae 9a b8 3f 94 bc b4 3f 87 19 ca 3f aa 89 f7 be
       1.4422204 1.412005 1.578904 -0.48347217
000090 b5 3e 9e bf a2 08 da bf f2 80 86 bf 7c 5e 8c bf
       -1.2362887 -1.7033885 -1.0508101 -1.0966334
0000a0 9e 53 a3 bf 2c 0e 9d bf 89 bd d1 bf 7d 2f a2 3f
       -1.2759893 -1.226995 -1.6385967 1.2670742
0000b0 e9 76 d4 3e 4f f5 e4 3f ec d5 5a bf 4f 17 d9 3f
       0.4149697 1.7887362 -0.8548267 1.6960238
0000c0 dc 69 d2 3f 8c 6e 69 3f 27 d1 83 bf 49 64 b4 bf
       1.6438556 0.91184306 -1.0298203 -1.4093105
0000d0 ea 57 ca bf 4e 1c c8 3f 48 fc 9c bf 4a c7 a9 3f
       -1.5808079 1.5633638 -1.226449 1.3263943
0000e0 4c 44 f1 3f e4 5c 00 bf 90 88 ed 3f bd 23 8b bf
       1.8848968 -0.5014174 1.85573 -1.0870281
0000f0 80 1f 39 bf 89 48 bb 3f e7 aa ea bf 16 e5 a5 bf
       -0.7231369 1.4631511 -1.8333405 -1.2960536
000100 7d 71 96 bf 0f ac 0f bf 5f 59 c7 bf 8e 97 c2 3f
       -1.1753384 -0.56121916 -1.5574149 1.5202501
000110 d2 56 a3 bf 1a a9 d7 3f ae d0 02 be ed cf b3 bf
       -1.276087 1.6848481 -0.12774917 -1.4047829
000120 98 d6 75 3f bb 6c 33 3f fa 8a 1f bd 28 62 d1 3f
       0.9603057 0.70087785 -0.038950898 1.635808
000130 81 3d 50 3f 75 05 c5 bf 34 81 c1 bf 59 25 c8 3f
       0.8134385 -1.539229 -1.5117555 1.5636398
000140 a7 40 d2 3f 52 a8 c8 3f 1e c8 97 bf d2 dc 40 be
       1.642598 1.5676367 -1.1857946 -0.18834236
000150 01 f5 cc 3f a5 be c8 3f 69 56 de 3f 91 89 d5 bf
       1.6012269 1.568318 1.737012 -1.6682607
000160 ce 9b a4 bf d2 72 a9 3f 64 ce c8 3f e0 00 d3 3f
       -1.2860048 1.3238165 1.5687985 1.6484642
000170 64 21 47 3f df e3 c0 3f 1e 74 02 3f d4 82 cf 3f
       0.77785325 1.5069541 0.5095843 1.62118
000180 d2 e6 bb 3f 20 85 a2 bf e8 ef 72 bf f7 7f 0f bf
       1.4679816 -1.2696877 -0.9489732 -0.56054634
000190 56 dc bf bf dc 12 5e bf b0 6c ae bf 1d a9 d0 3e
       -1.4989116 -0.8674753 -1.3626919 0.40754023
0001a0 f7 99 67 3f 9b 94 4d 3f a9 9a 7e 3f a2 32 d8 bc
       0.90469307 0.8030488 0.9945474 -0.026391331
0001b0 10 ac 46 3e 07 10 b5 bf d3 d8 a6 bf f1 96 cf bf
       0.19401574 -1.4145516 -1.303492 -1.6217939
0001c0 c7 9b 10 3f 68 a3 d3 bf 86 26 f9 bf 3e 19 bc 3f
       0.564877 -1.6534243 -1.9464881 1.4695203
0001d0 b4 21 cc bf 0b b9 45 bf 4c 81 77 3e 55 51 6a 3f
       -1.5947785 -0.7723548 0.24170417 0.9153035
0001e0 80 7c 16 3f 2f 8a 6f 3f 18 a8 29 3d 9a 83 23 3f
       0.5878372 0.93570226 0.041420072 0.63872683
0001f0 b2 b8 ca bf 0e 60 0e 3f c9 e1 df be 16 a7 fe 3e
       -1.5837615 0.5561532 -0.43726948 0.4973685
000200 ae 25 5e 3f e2 a3 50 3f 27 ca 64 3f 95 2c ad bf
       0.86776245 0.81500065 0.8937096 -1.352923
000210 f4 ea bc bf 87 28 be 3f 9a 1a e2 bf 88 4d 65 3f
       -1.4759202 1.4856118 -1.7664368 0.8957143
000220 2f 4c c6 bf d3 0a 96 bf 18 66 a4 bf 04 de ac bf
       -1.5491999 -1.1722053 -1.2843657 -1.3505254
000230 b6 6f b5 bf fe 9a 85 bf bf 85 c8 3f 22 a5 2c bd
       -1.4174716 -1.0437925 1.5665816 -0.04214967
000240 c2 95 c4 3e 38 b7 cc 3f 40 a8 d6 bf ee 24 8a bf
       0.38395506 1.5993414 -1.6770096 -1.079252
000250 e8 ca b6 3f 10 ce 20 bd 33 90 a6 bf c3 bd cc 3f
       1.4280672 -0.039259017 -1.3012756 1.5995411
000260 99 f9 b4 3f 40 ea 72 3f 5c 69 11 bf b3 1e bc 3f
       1.4138671 0.9488869 -0.5680139 1.4696869
000270 01 a0 ef be 83 34 9d be c8 1b ea 3f c7 f3 d3 bf
       -0.4680176 -0.30704126 1.8289728 -1.655877
000280 08 bd ff bd 41 1a 80 3f cd 2e 42 3f f0 f9 ef 3e
       -0.12487227 1.0008012 0.7585266 0.46870375
000290 98 fe b0 bf a3 03 94 3f 23 b4 ad bf f4 c0 a1 3f
       -1.3827696 1.156361 -1.3570598 1.263701
0002a0 f4 bd 25 bf e2 26 d1 bf 9b cc a5 3e 97 1d 98 3f
       -0.6474297 -1.6339991 0.32382664 1.188403
0002b0 6c 76 fd bf c4 27 60 3f ef 14 b3 bd 45 bb d8 3e
       -1.9801764 0.8756068 -0.08744227 0.42330375
0002c0 3f 5b ae bf ad 67 a1 bf 60 9a d7 3f 21 ca c0 3f
       -1.3621596 -1.2609764 1.6843987 1.5061685
0002d0 24 07 78 bf f5 a2 c5 3f 09 7e da 3f d8 18 d8 3f
       -0.96885896 1.5440356 1.7069713 1.6882582
0002e0 f2 7f 92 bf 8f d2 dd 3f 30 a6 b4 bf 11 bb d0 3f
       -1.1445296 1.7329882 -1.4113216 1.6307088
0002f0 b1 23 ff 3f dd 64 ac 3f 30 87 30 3f f3 1e 2d bf
       1.9932767 1.3468281 0.6895628 -0.6762535
000300 d7 50 9e bf ea c5 ee bd d4 91 1c 3f 98 ed 3c 3c
       -1.236842 -0.11658843 0.61160016 0.011531256
000310 82 67 c0 3f 20 60 9a bf 13 e6 a8 3e f9 a1 b2 3f
       1.5031588 -1.2060585 0.32988033 1.395568
000320 e9 96 94 3f d5 e4 61 be 7c 59 a7 bf 1a 87 74 3e
       1.1608554 -0.22059949 -1.3074183 0.23879662
000330 f7 e8 99 3f ad ed a3 bf 3d 93 7a 3f 0f 3b 61 3f
       1.202422 -1.2806908 0.9788092 0.8798074
000340 59 51 ee bf 3f c7 c8 bf b8 9c a8 bb 3e c0 d5 bf
       -1.8618575 -1.5685805 -0.0051456355 -1.6699293
000350 77 08 d5 3f 92 aa 8f bf 1c a6 6e 3f 94 d3 53 3f
       1.6643208 -1.1223929 0.9322221 0.8274472
000360 16 cf a2 bf 4b 66 bb bf c2 79 d2 3f 67 bf 0c 3e
       -1.2719448 -1.4640592 1.6443408 0.13744889
000370 60 60 a4 3f f2 1f bd bf e3 72 fe bf 61 86 ed bf
       1.2841911 -1.4775374 -1.9878811 -1.8556634
000380 3a 81 a1 bf ae 87 b6 bf 45 b6 5d 3f 5f 9a 78 3f
       -1.2617562 -1.4260156 0.86606246 0.9711055
000390 b6 da a2 bf d2 70 a3 3f 15 86 90 bf 6e 38 a6 bf
       -1.2722995 1.2768805 -1.1290919 -1.2985971
0003a0 15 27 ac 3e f8 00 bb bf d1 0d ab 3f 52 fc c6 bf
       0.33623567 -1.4609671 1.3363591 -1.5545752
0003b0 a9 b5 a2 bf e1 d2 f9 bf 5b d1 a7 bf 47 7a 71 3f
       -1.2711688 -1.951748 -1.3110765 0.94327205
0003c0 f7 7d a2 bf 83 ce d6 3f 93 3a 9b 3f 85 b6 3e bf
       -1.2694691 1.6781772 1.212725 -0.7449725
0003d0 e3 4b 79 3f a0 03 99 bf f7 54 9d bf 77 35 7d bf
       0.9738142 -1.1954231 -1.2291554 -0.98909706
0003e0 29 35 7a 3f 2e 63 9a bf 0b 06 db be 05 1d 0b 3f
       0.97737366 -1.2061517 -0.42778048 0.54341155
0003f0 bc a6 9e bf 1b e9 f4 3f 60 7b 82 3f 61 ae 33 bf
       -1.2394633 1.9133638 1.0193901 -0.70187956

seq.0.bias f4 [8]
000000 51 20 bd 3f c9 68 bd 3f 97 32 b8 3f c3 b0 a1 3f
       1.4775487 1.4797603 1.4390439 1.2632068
000010 e9 56 b9 3f 8f 3e ae 3f 63 33 cc 3f b3 43 bc 3f
       1.4479648 1.3612841 1.5953182 1.470816

seq.2.weight f4 [8, 8]
000000 d9 dc a7 bf 96 a8 9b bf 80 cc 85 bb b6 79 48 be
       -1.3114272 -1.2160823 -0.004083216 -0.19577679
000010 54 49 cb bd 6c 85 81 3d 32 50 62 be 27 60 78 bf
       -0.099260956 0.06324276 -0.22100905 -0.97021717
000020 ec e9 9d bf 58 8a 51 bf 56 12 d9 bf 6a da 6d 3f
       -1.2337012 -0.8185172 -1.6958721 0.929114
000030 89 86 d8 3f 11 58 a5 3f f9 5b c9 bf 1c bd 95 3f
       1.6916057 1.2917501 -1.5731193 1.1698337
000040 37 39 81 3f a2 cc 90 3f 32 58 f8 3f ca c1 bc bf
       1.0095586 1.1312449 1.9401915 -1.474664
000050 e2 50 60 3f d6 67 f9 bf ff da eb bd 56 3d ee bf
       0.8762342 -1.9484813 -0.115163796 -1.8612468
000060 85 39 ed 3f 64 a6 10 c0 17 6d d4 3f c0 44 26 3f
       1.8533179 -2.2601557 1.6595792 0.64948654
000070 c6 27 4e bf fa 87 6a 3f 77 38 fd 3f 45 54 c0 bf
       -0.8052944 0.91613734 1.9782857 -1.5025717
000080 42 05 c0 3f 64 4a 23 be be c3 9e bf 67 cb 3a bf
       1.5001605 -0.15946347 -1.2403486 -0.7296662
000090 40 39 7b 3e c1 a1 e0 3f 48 c8 17 3f 18 5c 9f 3f
       0.24533558 1.7549363 0.5928998 1.244998
0000a0 08 aa d0 be a4 93 e9 3f 80 1e d1 3f 0b 37 f8 3c
       -0.40754724 1.8248181 1.6337433 0.030299684
0000b0 a7 2d 34 bf 8b d9 03 c0 74 08 b8 3e 13 62 08 40
       -0.7038216 -2.0601528 0.3594395 2.130986
0000c0 47 38 52 3d b8 30 0a 40 be 43 19 be 90 67 d7 3f
       0.0513232 2.1592236 -0.14967248 1.682848
0000d0 07 61 10 c0 52 35 a5 3f 50 f2 e4 3f fb 01 0b c0
       -2.255922 1.2906897 1.7886448 -2.1719959
0000e0 c2 e4 08 40 59 9e cd bf 66 bd d9 3f 9e 26 00 c0
       2.1389623 -1.6063949 1.7010925 -2.002357
0000f0 8c e2 e8 bf b0 ab dd 3f c6 43 4b bf e4 2c e7 3f
       -1.8194137 1.731802 -0.7940029 1.8060575

seq.2.bias f4 [8]
000000 c0 28 b1 bf 8b 8a b4 3f 43 44 d5 3f 29 b8 a6 3f
       -1.3840561 1.410478 1.6661457 1.3024951
000010 e0 3a 72 bf af bf 35 3f 05 0e c3 3f 9e 59 cd 3f
       -0.94621086 0.7099561 1.5238653 1.6042974

seq.4.weight f4 [38, 8]
000000 f8 d6 b1 bf c3 21 92 bf 9a 24 bd bf 0b 39 09 c0
       -1.3893728 -1.1416553 -1.4776795 -2.1441066
000010 25 ef d4 be 19 5e 4f 3f aa 6d 9a 3f 25 5b ba 3f
       -0.41588703 0.81002957 1.2064717 1.4559065
000020 e2 b1 8d bf 20 d8 31 3f f8 e6 11 3f a1 5f f2 bf
       -1.106991 0.69470406 0.56993055 -1.8935434
000030 36 5b 08 c0 3d 8b 98 3f 7b 48 5c 3f 21 2f f9 bf
       -2.130567 1.1917492 0.86048096 -1.9467508
000040 31 da c4 bf 68 87 32 be ce 57 da bf 53 e4 06 c0
       -1.5379087 -0.17434466 -1.7058046 -2.1076858
000050 d8 ef 07 3c 21 19 13 3f cd c7 01 c0 2f bd e6 3f
       0.008296929 0.5746022 -2.0278199 1.8026484
000060 33 53 9a bf 79 bd 9f 3f 55 5e 95 bf c7 1b 16 3f
       -1.205664 1.2479697 -1.1669413 0.58636135
000070 36 09 69 bf ed 7a eb bf 7f ac 94 3f fc 99 c9 bf
       -0.9102968 -1.8396889 1.1615142 -1.5750117
000080 11 44 8f bf 24 27 b2 3f d7 07 ce bf 25 ee 59 be
       -1.1192647 1.3918195 -1.6096143 -0.21282251
000090 40 1c 9c 3f e9 c6 ce bf 65 b9 eb bf 0f 63 c8 bf
       1.2196121 -1.6154453 -1.8415953 -1.565523
0000a0 17 7c a6 bf 58 14 f9 bf f4 9b 5e 3f 7f 66 5b 3e
       -1.3006619 -1.9459333 0.86956716 0.21425818
0000b0 5f 9b cd 3c d5 ee 7b 3c a3 c7 09 c0 70 65 eb 3f
       0.0250985 0.015376766 -2.1528099 1.8390331
0000c0 04 cc a2 bf cc 72 fe bf 3e fb 00 c0 51 0a bb bf
       -1.2718511 -1.9878783 -2.0153346 -1.4612523
0000d0 e1 27 82 3f 70 91 e8 3f 0c 3b 2f 3f e4 dd f5 bf
       1.016842 1.8169384 0.68449473 -1.9208341
0000e0 e3 d7 ac bf 49 2a d9 bf 10 ee 3f bf 00 3a af be
       -1.3503383 -1.696603 -0.7497263 -0.34223938
0000f0 d4 e5 e2 3e 0d 54 53 bf 90 f3 f5 bf a0 83 06 40
       0.4431597 -0.82550126 -1.9214954 2.1017838
000100 b8 26 bb bf 26 fa b8 bf e8 d3 a3 3f d0 66 04 c0
       -1.4621191 -1.4451339 1.2799044 -2.0687752
000110 80 d0 0e bf da 07 b0 3f f7 c0 e8 bf 36 aa 7f 3f
       -0.55786896 1.3752396 -1.8183888 0.99869096
000120 b5 65 88 bf 83 30 bc 3f 0b 09 c8 bf 82 27 bc bf
       -1.0656039 1.4702305 -1.562776 -1.4699557
000130 53 ae 8e 3f 39 89 f6 bf ce 99 cd bf 7d 05 d3 bf
       1.114695 -1.9260627 -1.6062562 -1.648605
000140 15 62 b7 bf cc a9 10 3f a4 f3 a4 3f d3 47 81 bf
       -1.4326807 0.5650909 1.2886853 -1.0100044
000150 3d 8f 54 3e 1a c5 82 3f bd 9b e9 be 35 75 eb bf
       0.20757766 1.0216401 -0.4562663 -1.8395144
000160 23 8b 99 bf 3b de 12 c0 4b 19 82 bf 28 ea a1 3f
       -1.1995586 -2.2948139 -1.0163969 1.2649584
000170 00 bf b0 3e 71 b0 cb bf 09 bd fd 3e d6 34 b8 3f
       0.3452072 -1.5913221 0.49558285 1.4391124
000180 84 9a 8a bf fa 81 01 c0 ab cd 9a 3f 7c d8 10 c0
       -1.0828404 -2.0235581 1.2094015 -2.2632132
000190 a3 89 d4 bf 47 c9 09 3f 29 68 03 40 b5 10 cf bf
       -1.6604503 0.5382275 2.0532324 -1.6176974
0001a0 b9 20 9b bf f3 53 d0 bf 27 10 80 3d 5b 6b c6 3f
       -1.2119361 -1.6275619 0.06253081 1.5501512
0001b0 0a f5 12 c0 e3 63 29 bf d4 e6 00 40 dc 79 0d c0
       -2.296206 -0.6616804 2.0140886 -2.2105627
0001c0 2b 7a b5 bf fa 11 ac 3e 6d f4 91 3f 0b de a1 be
       -1.4177908 0.33607465 1.1402718 -0.31614718
0001d0 bc 96 99 3e 8e 36 80 bf 18 4e f6 3f d8 42 28 3e
       0.29997814 -1.0016649 1.9242582 0.16431749
0001e0 a4 eb b6 bf b0 c4 63 3f c5 84 a7 bf a2 8e 28 3e
       -1.4290662 0.88971996 -1.3087393 0.1646066
0001f0 7d a3 84 3f 42 4f d8 bf cb b9 af 3e 32 37 ea bf
       1.0362393 -1.6899188 0.34321436 -1.8298094
000200 41 ba ae bf cc 14 fd bf 07 78 01 40 36 b6 d3 3f
       -1.365059 -1.9771972 2.022951 1.6539981
000210 f7 d2 07 c0 e5 c9 a8 bf a4 68 b5 bf 11 da c6 3f
       -2.1222513 -1.3186613 -1.4172559 1.5535299
000220 4f 60 a0 bf 1b 23 20 3e 72 b7 de bf 9b a8 cd bf
       -1.2529391 0.15638392 -1.7399733 -1.6067079
000230 4c 26 f5 be 2b a1 06 40 3e 7f ee bf 2e 33 07 c0
       -0.4788078 2.103587 -1.8632581 -2.1124988
000240 b3 c5 90 bf d6 67 8e 3f dc e8 8a bf 18 de 73 bf
       -1.1310333 1.1125438 -1.0852313 -0.95260763
000250 36 a9 b5 3f d8 86 a5 bf 78 62 ee bf c8 b0 06 bf
       1.4192264 -1.2931776 -1.86238 -0.52613497
000260 3c af 9e bf 31 ad 9a 3f 30 50 dc bf 12 10 91 3f
       -1.2397227 1.2084104 -1.7211971 1.1333029
000270 0a 56 6c 3f 44 bc 70 bf 19 c8 c2 bf 0f 51 dc bf
       0.92318785 -0.9403727 -1.5217315 -1.7212237
000280 f8 50 69 bf 47 30 f0 bf 1c 1d f3 3f c6 19 d0 be
       -0.91139174 -1.8764733 1.8993258 -0.40644664
000290 54 a5 dc bf 3f 05 5b 3e 37 f3 cb 3f cd ec f2 bf
       -1.7237954 0.2138872 1.5933598 -1.8978516
0002a0 51 ec 63 bf fb fd ee bf 5b 74 ea 3e 1b 47 89 be
       -0.89032465 -1.8671259 0.45791897 -0.26812062
0002b0 74 23 bf bf 28 06 fd 3f c9 5e 6f bf 33 92 03 c0
       -1.4932694 1.9767504 -0.93504006 -2.0557983
0002c0 0e 31 a2 bf d8 b5 82 bf 6d 52 e1 bf 56 6c e9 bf
       -1.267122 -1.0211744 -1.7603279 -1.8236187
0002d0 82 36 09 c0 6a 41 2a 3f ea 27 0d 40 4c e1 d7 bf
       -2.143952 0.66506064 2.2055612 -1.686563
0002e0 63 a3 97 bf 2e 97 72 3e 75 7d 59 3e 5e e9 c1 3f
       -1.1846737 0.23690483 0.21239264 1.5149343
0002f0 fa 72 b7 3e 7e fa 03 3f de 50 05 c0 3e 3c 99 bf
       0.35829908 0.51554096 -2.0830607 -1.197151
000300 c4 ca aa bf 76 5f cf bf 37 49 c6 3f 7d 82 c6 bf
       -1.3343129 -1.6201007 1.5491093 -1.5508572
000310 6b 69 00 c0 47 11 c0 3f 72 52 02 c0 d7 d7 be bf
       -2.0064342 1.5005273 -2.036282 -1.4909619
000320 d8 bd 96 bf d3 c3 46 3f 58 68 0d c0 2a f4 00 c0
       -1.1776686 0.77642554 -2.2094936 -2.0149026
000330 96 55 18 3f c0 73 ef 3e a5 e3 8b 3f 61 34 d2 bf
       0.59505594 0.46767998 1.0928847 -1.6422235
000340 de 84 b3 bf 86 cc b8 3e 73 34 c1 bf 4d ef ae 3f
       -1.4024923 0.3609354 -1.5094131 1.3666779
000350 30 6c 2d 3d 85 2b ba bf 75 e5 8f 3f 7a f4 0c c0
       0.042339504 -1.4544531 1.12419 -2.2024217
000360 d6 3c b5 bf c5 ca c3 bf fd 1e 4f 3f 26 df cf 3e
       -1.4159191 -1.5296255 0.8090666 0.40599936
000370 cd 5d d8 bf 86 12 1d 3f 89 cf 53 3f ad 42 17 3d
       -1.6903626 0.6135639 0.8273855 0.03692882
000380 76 48 7e bf 84 78 dd 3f 99 e1 b3 bf 1d f6 a5 bf
       -0.99329317 1.7302403 -1.4053222 -1.2965733
000390 cd a0 0c be 34 1d d6 bf cd ad ec bf f6 57 a5 bf
       -0.13733216 -1.6727662 -1.849054 -1.2917469
0003a0 4a a2 c0 bf 3e 20 fa bf e9 03 98 bf 5c b5 a0 3f
       -1.5049527 -1.954109 -1.1876193 1.2555346
0003b0 37 17 f7 3e 64 68 c0 bf 77 58 c7 3f 81 ec b7 bf
       0.482599 -1.5031857 1.5573872 -1.436905
0003c0 87 61 62 bf 19 fb c4 bf 45 82 f7 3f 4f 96 bd 3f
       -0.88430065 -1.5389129 1.933663 1.4811496
0003d0 9f ec 4c bf 9f 80 6c bf 15 ff 5c 3f 3b 97 af be
       -0.80048555 -0.9238376 0.86326724 -0.34295067
0003e0 be c5 9a bf 38 4f 62 bf 48 62 b9 bf a6 fc dc 3f
       -1.2091596 -0.8840213 -1.4483118 1.7264602
0003f0 c0 7a 93 3f 8f 91 06 c0 91 5b 39 be 04 09 e7 bd
       1.1521835 -2.1026342 -0.18101336 -0.112810165

seq.4.bias f4 [38]
000000 5f 48 c6 bf 13 06 c3 3f cb 49 b2 3e 1e 6e 3d be
       -1.5490836 1.5236229 0.34821925 -0.18499038
000010 e1 c1 5f bf 7a 85 56 3f 68 04 45 bf b4 7d bf bf
       -0.8740521 0.8379742 -0.7695985 -1.4960237
000020 47 39 a2 bf ea 5d 51 3e 94 d7 1f 3f 02 6a 1f bf
       -1.267373 0.20445982 0.6243832 -0.6227113
000030 31 50 6a bd f8 4c 95 3f 02 90 c9 3f b3 0a 4a bf
       -0.057205383 1.1664114 1.5747073 -0.78922576
000040 59 1e 7c 3f cd e3 c1 3f ac 74 2d bf ae 84 0b be
       0.98483807 1.5147644 -0.6775615 -0.13624832
000050 7a 70 82 bf fd 95 8d 3f c4 84 b1 3e f2 d7 b6 3f
       -1.0190575 1.1061398 0.34671605 1.4284651
000060 ac 23 9e 3f 81 7f a7 3f c4 be 6c 3f 2b c8 cc bf
       1.2354636 1.3085786 0.92478585 -1.5998586
000070 d5 e8 85 bf f6 b1 36 bf e4 b9 78 bf 04 f8 5c 3f
       -1.046168 -0.71365297 -0.97158647 0.8631594
000080 2c 59 dd 3e 42 dc 9d 3f c4 af c4 bf 1c 07 80 bf
       0.43232095 1.2332842 -1.536614 -1.000217
000090 0d bb 1c 3e 93 67 b2 3f
       0.15305729 1.3937858
